artifacts/base_ae_distill-b_2-lr_3e04/epoch_2099/base_ae_distill.pth (torch, 982770 bytes, 12 tensors)

encoder.0.weight f4 [128, 3, 7, 7]
0	0xbf149de5	-0.5805343
1	0xbeaaf1ce	-0.33387607
2	0xbf200585	-0.6250842
3	0xbd3ef48a	-0.04661993
4	0xbea395b0	-0.3195014
5	0xbe7ed35a	-0.24885312
6	0xbe697bea	-0.22801176
7	0x3df9d782	0.12199308
8	0xbf068955	-0.525533
9	0xbf770e1d	-0.9650591
10	0xbddb87fe	-0.10719298
11	0xbdf2936c	-0.11844525
12	0xbe065200	-0.13117218
13	0x3e1affc5	0.15136631
14	0xbe8362f5	-0.25661436
15	0x3eb8c96e	0.3609118
16	0x3f1fe015	0.624513
17	0x3e54b73d	0.20773025
18	0xbf1aeaba	-0.60514414
19	0xbf03497c	-0.51284003
20	0xbf164c26	-0.58709943
21	0x3e32a003	0.17443852
22	0x3c69ef60	0.014278263
23	0x3e4ac0f8	0.19800174
24	0xbe258371	-0.16163422
25	0xbea7def5	-0.3278729
26	0x3e27432e	0.16334221
27	0xbe0a357c	-0.13496965
28	0xbebf1ecd	-0.37328187
29	0xbd7d63cd	-0.061862756
30	0xbf35a0db	-0.7094857
31	0xbe518cb1	-0.20463826
32	0x3d4e2491	0.05032784
33	0x3e124f39	0.14288034
34	0x3dd242e9	0.10266668
35	0x3dcd30b5	0.10019056
36	0x3d443142	0.04789854
37	0xbe96fded	-0.29490605
38	0xbdd0b861	-0.101914175
39	0x3d8b0bff	0.067893974
40	0xbd20149e	-0.039082162
41	0xbdf67909	-0.120348044
42	0x3e698f6a	0.22808614
43	0xbe3949ba	-0.1809453
44	0x3db05092	0.086091176
45	0xbeb3382f	-0.35003802
46	0xbecd1ceb	-0.40061125
47	0xbf0f2ebf	-0.55930704
48	0xbe5949c9	-0.21219553
49	0xbd83e776	-0.06440632
50	0x3edf45f0	0.43608046
51	0xbdedc668	-0.116101086
52	0xbe03156c	-0.1280114
53	0xbda9bc6c	-0.08287892
54	0x3d2e01d0	0.042482197
55	0x3f24be43	0.64352816
56	0x3d12f6b4	0.035879806
57	0x3f154bbe	0.583187
58	0x3c544606	0.012956148
59	0xbbfa764b	-0.007643496
60	0xbe9eb3dd	-0.309966
61	0xbf18ab23	-0.59636134
62	0x3dbbadc6	0.09164004
63	0xbdfb90ea	-0.122834995
64	0xbd212913	-0.039345812
65	0xbf1ae923	-0.6051199
66	0xbf15a519	-0.58455044
67	0xbeb026ae	-0.3440451
68	0xbefe744c	-0.49698102
69	0x3eeaf776	0.45891923
70	0x3eb20995	0.34772936
71	0xbf1c0efd	-0.6096037
72	0xbf245ad9	-0.6420112
73	0xbe0dd1e3	-0.13849597
74	0x3e1f9e01	0.15587617
75	0xbf439a48	-0.7640729
76	0x3e6957cf	0.22787403
77	0xbce9a48b	-0.028520843
78	0x3e1081b9	0.14111985
79	0xbd8fe1fc	-0.07025525
80	0xbdbbd0b7	-0.091706686
81	0xbe0fd00b	-0.14044206
82	0xbe93a646	-0.28837794
83	0x3ce43326	0.02785642
84	0xbe28c0c4	-0.16479784
85	0xbb60dbb7	-0.0034310648
86	0xbe55f5cb	-0.20894544
87	0xbe89ed9e	-0.269391
88	0x3d3fdf99	0.0468441
89	0x3e0ac468	0.13551486
90	0xbeaf14e1	-0.34195617
91	0xbd160d95	-0.036634047
92	0x3da00ac1	0.07814551
93	0x3e9f3c3d	0.31100646
94	0xbbbde753	-0.0057953983
95	0x3b16782e	0.0022959816
96	0x3e97500f	0.29553267
97	0x3dd72877	0.10505765
98	0xbed5f0ee	-0.41785377
99	0x3f338ce3	0.7013685
100	0x3ec3c0d6	0.3823306
101	0xbe1ba116	-0.15198168
102	0xbecd3b92	-0.4008451
103	0xbe70ba2f	-0.23508523
104	0x3b3470b0	0.0027532987
105	0xbeaece90	-0.3414197
106	0x3e4c5384	0.19953734
107	0x3f0416f5	0.5159753
108	0x3e911d31	0.28342584
109	0x3e05baf7	0.13059603
110	0xbe33fc69	-0.17576756
111	0xbe6ec386	-0.23316774
112	0xbd81720e	-0.06320582
113	0xbebbd9dc	-0.3668965
114	0xbe77acae	-0.24186966
115	0x3e017ab9	0.12644471
116	0xbee8d367	-0.45473787
117	0x3efdf2a2	0.49599177
118	0x3e52e4cb	0.2059509
119	0xbdcfdca8	-0.10149509
120	0xbf0ba9a8	-0.5455575
121	0xbe128cd0	-0.14311528
122	0xbf1eb5ac	-0.6199596
123	0xbee4831b	-0.44631276
124	0x3e4df063	0.20111232
125	0xbe2bc0f4	-0.16772825
126	0xbe92beeb	-0.28661284
127	0x3eb1dea9	0.3474019
128	0x3e8be12c	0.2732023
129	0xbe7c8eae	-0.24663803
130	0xbce419d5	-0.027844349
131	0x3f0993d3	0.53741187
132	0xbf0aea01	-0.5426331
133	0x3daee9f1	0.085407145
134	0x3e15e2e0	0.14637327
135	0x3e6282e7	0.22120248
136	0x3eee03a6	0.4648716
137	0x3e6def48	0.2323581
138	0xbc8c15b2	-0.017100189
139	0xbd5d999f	-0.054101583
140	0x3f2cafce	0.67455757
141	0xbde82cbb	-0.11336657
142	0x3ed65805	0.4186403
143	0x3d270da1	0.040784482
144	0x3e436c9b	0.19084398
145	0x3f36f7a9	0.7147165
146	0x3f02c01c	0.51074386
147	0x3f25437b	0.6455609
148	0xbe04a0e8	-0.12952006
149	0x3f5359f7	0.8255915
150	0xbe4fc496	-0.20289835
151	0x3e072ff9	0.13201894
152	0x3d7d2927	0.061806824
153	0xbdf82eaa	-0.121182755
154	0x3f0f0627	0.5586876
155	0xbebbd260	-0.3668394
156	0xbeb2804b	-0.34863505
157	0xbea8575f	-0.3287916
158	0x3ecb335f	0.3968763
159	0x3d2c7ef4	0.04211326
160	0x3eb9ee2f	0.36314532
161	0xbe1234a0	-0.14277887
162	0x3ec2ebe7	0.38070604
163	0xbe9cc302	-0.3061753
164	0x3dbaab58	0.091147125
165	0x3ed5533f	0.41665074
166	0xbedd75ce	-0.4325394
167	0x3ed25e85	0.41087738
168	0xbc8d8697	-0.017276092
169	0x3d91a12b	0.071108185
170	0x3edb8f47	0.4288275
171	0xbf10664f	-0.5640611
172	0x3f14f898	0.58191824
173	0xbebc1c32	-0.3674026
174	0xbf7b41d5	-0.98147327
175	0x3ef8f8b9	0.4862726
176	0x3f74b27c	0.95584846
177	0xbee9d213	-0.45668086
178	0x3ebf796c	0.37397325
179	0x3e8a625f	0.27028176
180	0x3ea2be49	0.317858
181	0xbd04767c	-0.032339558
182	0xbd9e4436	-0.07727854
183	0xbe6caf11	-0.23113658
184	0xbf363dfd	-0.71188337
185	0xbe419c35	-0.18907245
186	0xbe6dc917	-0.23221241
187	0xbf1d7398	-0.6150451
188	0x3f512715	0.8170026
189	0x3f1482e3	0.5801222
190	0x3e5cf152	0.21576431
191	0x3e9fc02e	0.3120131
192	0xbddddae3	-0.10832765
193	0x3f3fcd54	0.7492268
194	0xbeebf224	-0.46083176
195	0x3fb8815f	1.4414481
196	0xbe0f2745	-0.13979824
197	0xbe917b37	-0.28414318
198	0x3ec2b8e9	0.380317
199	0x3ee2e3d5	0.44314447
200	0x3f1c5b0f	0.61076444
201	0x3ee22426	0.44168204
202	0x3e4c3281	0.1994114
203	0x3f0e8898	0.55677176
204	0x3dedc458	0.11609715
205	0x3eb7453c	0.3579501
206	0xbeb9b104	-0.36267865
207	0xbf2cfe83	-0.67575854
208	0xbed9511b	-0.4244469
209	0xbf47d7f2	-0.7806388
210	0x3f96f24d	1.1792694
211	0x3f3e2f0e	0.7429055
212	0xbf5ce03c	-0.86279655
213	0x3f04af7a	0.51830256
214	0xbf9b09e9	-1.2112399
215	0x3f644be9	0.8917833
216	0xbfe8b285	-1.817948
217	0x3dc3d098	0.095612705
218	0xbea0c6aa	-0.3140157
219	0xbc1d6c1d	-0.009608296
220	0xbf1d0d1c	-0.6134813
221	0x3deba5a2	0.11506201
222	0x3f10b953	0.5653278
223	0xbf0a741a	-0.54083407
224	0xbe80a78c	-0.25127828
225	0x3e9c4448	0.30520844
226	0xbe9bdb81	-0.30440906
227	0x3e78ced6	0.24297652
228	0x3d976839	0.07392926
229	0x3f8aa08b	1.0830244
230	0x3f3ef109	0.7458654
231	0x3ee37478	0.44424796
232	0x3f046b7a	0.51726496
233	0x3ea30558	0.31840014
234	0x3e7bff79	0.24609174
235	0xbf30f019	-0.6911636
236	0xbe950988	-0.29108834
237	0xbd74a934	-0.059731677
238	0x3e63c741	0.22243978
239	0x3eac6dfb	0.33677658
240	0x3e532e6e	0.2062318
241	0xbf2f6831	-0.6851836
242	0xbec173bf	-0.3778362
243	0xbf48c65b	-0.78427666
244	0xbf254dea	-0.6457201
245	0x3efbce60	0.4918089
246	0xbe96ecc4	-0.29477513
247	0xbf65f304	-0.8982394
248	0x3dc765a0	0.0973618
249	0x3e61f88a	0.22067466
250	0xbe69f204	-0.22846228
251	0xbedebe3c	-0.43504512
252	0x3f10c5f7	0.5655207
253	0xbea40749	-0.32036808
254	0x3eec5ca5	0.46164432
255	0xbf98a3da	-1.1925004

encoder.0.bias f4 [128]
0	0x400951a5	2.1456082
1	0xbee8cac2	-0.45467192
2	0xbd8d61d7	-0.06903427
3	0xbd815d2c	-0.06316599
4	0xbd87aa82	-0.06624319
5	0x3b42e834	0.0029740455
6	0x3dc45a12	0.09587492
7	0xbeb64f8c	-0.35607564
8	0xbdc2bd69	-0.09508783
9	0xbecb0ecb	-0.39659724
10	0xbd74f975	-0.059808213
11	0xbd8e7f58	-0.06957883
12	0x3ee4da32	0.4469772
13	0xbc17ad01	-0.009257556
14	0xbda042b3	-0.07825222
15	0xbff4655d	-1.9093434
16	0xbda1f9ee	-0.079089984
17	0xbd994c92	-0.07485308
18	0x3f0c4074	0.5478585
19	0xbd8097c6	-0.062789485
20	0xbdadc6fc	-0.08485219
21	0xbc61bda9	-0.013778129
22	0xbcfb06ee	-0.030642953
23	0xbdb592a1	-0.08865858
24	0xbbc921d9	-0.006138068
25	0xbf5c371f	-0.8602161
26	0xbb8cd8a1	-0.004298285
27	0xbf358811	-0.70910746
28	0xbd823d7d	-0.06359384
29	0xbf35f0b8	-0.7107043
30	0x3c980579	0.018557297
31	0x3daeb7d6	0.08531158
32	0x3d534af5	0.051585156
33	0x401a3080	2.4092102
34	0x4010ac5d	2.2605202
35	0xb9451185	-0.0001879391
36	0xbe0eba8b	-0.13938348
37	0x3c160aed	0.009157878
38	0xbd9da55d	-0.07697556
39	0xbfd414f9	-1.65689
40	0xbf00322f	-0.50076574
41	0xbfc28cfe	-1.5199277
42	0xbda68d60	-0.08132434
43	0x3c93c597	0.018038554
44	0x3bc92f73	0.0061396896
45	0xbd0198ad	-0.031639744
46	0xbe4408da	-0.19144002
47	0xbc7b0213	-0.015320319
48	0xbe859b78	-0.26095176
49	0xbd1e363f	-0.03862595
50	0xbd11e418	-0.035617918
51	0xbf969216	-1.1763332
52	0xbe670960	-0.2256217
53	0xbd198a0d	-0.03748517
54	0xbe664501	-0.2248726
55	0xbcc1a537	-0.02363835
56	0x3ebfee4d	0.37486497
57	0xbdab2159	-0.0835597
58	0x3f91e082	1.1396639
59	0xbe01d074	-0.12677175
60	0xbd6954f8	-0.0569658
61	0xbdb0f812	-0.08641066
62	0xbe00567d	-0.12532993
63	0x3d5db554	0.054128006
64	0x3cf019cb	0.029309174
65	0x3ca940a1	0.0206607
66	0x3c8f5f44	0.01750148
67	0x3f1dd4c1	0.6165276
68	0x3f0cf497	0.55060714
69	0x3d3edfb3	0.046600055
70	0xbd61d3e6	-0.055133723
71	0xbeb4827a	-0.35255796
72	0x3e380c68	0.17973483
73	0xbaf3c5a6	-0.0018598333
74	0xbd0f19f5	-0.034936864
75	0x3d4d4641	0.050115827
76	0xbccbc5e3	-0.024874633
77	0xbdb3ea4d	-0.08784924
78	0xbd94a42f	-0.07257878
79	0xc05dfa26	-3.4683928
80	0x3c6acd58	0.014331184
81	0x3ca639b0	0.02029118
82	0x3fdbdc18	1.7176542
83	0xbf21c038	-0.6318393
84	0x3cc79214	0.024361648
85	0xbd838c07	-0.064231925
86	0xbd52295b	-0.05130897
87	0xbd6e649d	-0.05820142
88	0xbcc652a2	-0.024209324
89	0xbd9d3875	-0.07676784
90	0xbd039dca	-0.0321329
91	0x3fb4948d	1.4107834
92	0xbfd8e6a9	-1.6945392
93	0x3f017980	0.5057602
94	0xbba7a8b4	-0.0051165465
95	0xbd48c9f3	-0.04902072
96	0xbd48811c	-0.048951253
97	0xbd65e021	-0.05612195
98	0xbdb1df9d	-0.08685229
99	0xbeb08bcb	-0.34481654
100	0x3e8f3ed9	0.27977636
101	0xbd874806	-0.06605534
102	0xbc98351f	-0.018580018
103	0xbd005f88	-0.031341106
104	0xbdc012d4	-0.09378591
105	0xbd076480	-0.03305483
106	0xbd9f1bab	-0.07768949
107	0xbef30e85	-0.47472015
108	0xbd31d49d	-0.043415654
109	0xbd8b5ecf	-0.06805193
110	0x3decb697	0.11558264
111	0xbd9c98f3	-0.0764636
112	0xbeffa0dd	-0.49927416
113	0xbefb51e9	-0.4908593
114	0xbd1cdd65	-0.038297076
115	0xbd9654b4	-0.073403746
116	0xbe074eb3	-0.13213615
117	0xbc9cdfab	-0.019149622
118	0xbfdc35ff	-1.7203978
119	0xbd6e7075	-0.058212716
120	0xbdabce89	-0.08389003
121	0xbbb03fcb	-0.0053786985
122	0x3ec29cad	0.3801016
123	0xbdab02fb	-0.08350178
124	0xbdb5cee3	-0.08877351
125	0x3ca89725	0.020579884
126	0x3fb2a3ba	1.3956215
127	0x4011b448	2.2766285

encoder.3.weight f4 [32, 128, 5, 5]
0	0xbd87ce9f	-0.06631207
1	0xbd91c82e	-0.07118259
2	0xbd3b7bf7	-0.04577252
3	0xbd33efc1	-0.04392982
4	0xbd8f4e03	-0.069973014
5	0xbd8d569c	-0.06901285
6	0xbd47442f	-0.04864901
7	0xbd90afa2	-0.07064749
8	0xbd5018ca	-0.05080489
9	0xbd5ed83a	-0.05440543
10	0xbd4427f8	-0.04788968
11	0xbd1c7591	-0.038198058
12	0xbd538f62	-0.051650412
13	0xbd45d5f8	-0.04829976
14	0xbd8b222f	-0.067936294
15	0xbd4555bd	-0.04817747
16	0xbd0672bd	-0.032824267
17	0xbd07b5cd	-0.033132363
18	0xbd2e6407	-0.042575862
19	0xbd7462b6	-0.05966445
20	0xbd5b610c	-0.053559348
21	0xbcb18c33	-0.021673298
22	0xbc89c436	-0.016817193
23	0xbc95f5b3	-0.018305635
24	0xbd129a77	-0.03579184
25	0xbc902d60	-0.017599761
26	0xbb568abc	-0.00327365
27	0xbcdbf5c5	-0.02685059
28	0xbafbe91a	-0.001921925
29	0x3bd14280	0.0063861012
30	0xbac528e0	-0.0015042089
31	0xba5234fe	-0.0008018761
32	0xbc12998b	-0.00894774
33	0x3c10efc0	0.008846223
34	0xbc9b9bc2	-0.01899517
35	0xbc95cd03	-0.018286234
36	0xbc576c62	-0.013148399
37	0x3a53777b	0.0008066815
38	0xbc56edb8	-0.0131182
39	0x3c3922d0	0.011299804
40	0xbc374c39	-0.0111876065
41	0xbbdb71c3	-0.006696911
42	0x3c4aa9b9	0.012369567
43	0x3c79313b	0.015209491
44	0x3bcdfd67	0.0062863114
45	0xbb7a4b16	-0.0038191727
46	0x3c274e76	0.010211578
47	0xbaaf51c6	-0.0013375811
48	0x3c09c6dd	0.008409229
49	0x3ba4fa9e	0.0050347587
50	0xb9ca170c	-0.00038545614
51	0x3c88a8b8	0.016682014
52	0x3c0ba0de	0.00852224
53	0x3c87ff10	0.016601115
54	0x3c88c2ed	0.01669451
55	0x3b5ff6bb	0.0034174162
56	0xbc07849b	-0.008271362
57	0xbbc2c15c	-0.0059434604
58	0xbb3854e1	-0.0028126764
59	0xbbbd0a96	-0.005769084
60	0x3af1c150	0.0018444452
61	0x3c8cc84d	0.017185355
62	0x3c3ec71e	0.011644153
63	0x3b9e9e51	0.00484065
64	0x3c168c78	0.009188764
65	0xbc238606	-0.009980684
66	0x3be8deda	0.007106644
67	0x3c7db4bc	0.015484985
68	0x3bbb592e	0.005717418
69	0x398ea347	0.00027206002
70	0x3c69e3fa	0.014275545
71	0xbc6e2b46	-0.014536684
72	0x3c238117	0.009979508
73	0xbb604d87	-0.0034225897
74	0xbc857c9e	-0.016294774
75	0xbbbf3c9e	-0.0058360836
76	0xbc9e28dd	-0.019306595
77	0xbca27dc2	-0.019835357
78	0xbcc48423	-0.023988789
79	0xbcaf2525	-0.021380017
80	0xbc9a25f9	-0.018816935
81	0xbd08d4f7	-0.033406224
82	0xbbf62e61	-0.007512853
83	0xbc61e650	-0.013787821
84	0xbc17f9c6	-0.009275859
85	0x3aa493fd	0.0012556311
86	0xbca5dc73	-0.02024672
87	0xbcdbb2f9	-0.02681874
88	0xbce355df	-0.027750907
89	0xbc974422	-0.018465105
90	0xbc9e2a77	-0.019307358
91	0xbc1c47f3	-0.009538638
92	0xbc6d173b	-0.014470871
93	0xbc21322a	-0.00983862
94	0xbcc9c50f	-0.024630098
95	0xbcf7ffe5	-0.030273387
96	0xbc6da747	-0.014505214
97	0xbc3a7108	-0.011379488
98	0xbcc066a5	-0.023486445
99	0xbcaf31c3	-0.021386033
100	0xbb397d93	-0.0028303608
101	0xbc679e73	-0.014136898
102	0x3c88bdb9	0.01669203
103	0x3c31ee77	0.010860077
104	0xbc682f57	-0.014171443
105	0xbc829427	-0.015939785
106	0x3c728b83	0.01480377
107	0x3c836e9b	0.016043952
108	0xbc788445	-0.015168254
109	0x3b044628	0.0020183418
110	0xbc211221	-0.009830982
111	0xbc669d14	-0.014075536
112	0xbc6313ec	-0.01385973
113	0x392e55f7	0.00016625958
114	0x3c88170d	0.016612554
115	0x3bea2d83	0.0071465387
116	0xbc7b6efb	-0.015346284
117	0x3bb41f97	0.00549693
118	0x3c361d4d	0.011115384
119	0x3c1bab4d	0.0095012905
120	0x3c80cfa0	0.015724003
121	0xbc1e3284	-0.009655599
122	0xbc3354ca	-0.010945508
123	0x3bb39cb8	0.005481329
124	0xbc8bb5db	-0.017054489
125	0xbcadc7ec	-0.021213494
126	0xbb69ebb5	-0.003569347
127	0xbc313a62	-0.010817142
128	0xbcaaf76f	-0.020869939
129	0xbc134100	-0.008987665
130	0xbcc1ad38	-0.023642167
131	0xbcc6f738	-0.024287805
132	0xbc23cac3	-0.009997073
133	0xbcc39e5f	-0.023879228
134	0xbb4b69ca	-0.0031038397
135	0xbbd49657	-0.0064876485
136	0xbb5dee66	-0.003386402
137	0xbaeaf5ad	-0.0017926
138	0xbc4ab639	-0.012372547
139	0xbcadba0a	-0.021206874
140	0xbcf0afb3	-0.029380655
141	0xbca23bf1	-0.019803973
142	0xbcf3606d	-0.029709065
143	0xbb8e9f78	-0.0043525063
144	0xbc63535e	-0.013874857
145	0xbcb7618c	-0.022385381
146	0xbc8072ab	-0.015679678
147	0xbb18412f	-0.0023232212
148	0xbcb9cc96	-0.022680562
149	0xbc415f10	-0.01180245
150	0xbd344edc	-0.04402052
151	0xbd5a64dd	-0.053318847
152	0xbd66aa65	-0.056314845
153	0xbd13e09b	-0.036102872
154	0xbd5200e2	-0.051270373
155	0xbd15a195	-0.03653105
156	0xbd15f6f4	-0.036612466
157	0xbd6a2cda	-0.05717168
158	0xbd3ce43d	-0.046116102
159	0xbd0ea637	-0.034826484
160	0xbd40633c	-0.046969637
161	0xbd39c8f4	-0.04535766
162	0xbd077b55	-0.033076603
163	0x3bcaa088	0.0061836876
164	0xbc6225f3	-0.013802993
165	0xbd2b990d	-0.041894007
166	0xbafd075f	-0.0019304565
167	0xbb9abe0b	-0.004722362
168	0xbbbfe4d0	-0.005856134
169	0xbbc676b3	-0.0060566305
170	0xbc856855	-0.016285101
171	0x3bac4838	0.0052576326
172	0xbc13bb5c	-0.009016838
173	0xbc450d42	-0.012027087
174	0xbc7c47ed	-0.015398008
175	0xbc126921	-0.0089361975
176	0xbce2fec6	-0.027709376
177	0xbc1b6691	-0.009484903
178	0xbc88d670	-0.016703814
179	0xbd07938d	-0.0330997
180	0xbba344c9	-0.004982565
181	0xbc19a9f2	-0.009378897
182	0xbc1092b6	-0.008824041
183	0xbcc712b3	-0.024300909
184	0xbd020431	-0.03174228
185	0xbbf3f7a8	-0.0074452944
186	0xbcf1ef0b	-0.02953293
187	0xbbf5f246	-0.007505688
188	0xba2e0bb3	-0.00066393166
189	0xbc95664b	-0.018237254
190	0xbcf957be	-0.030437347
191	0xbb33ea1c	-0.0027452772
192	0xbd07156c	-0.032979414
193	0xbcb3c4a4	-0.021944351
194	0xbceefba1	-0.02917272
195	0xbc083844	-0.008314196
196	0x3988e115	0.0002610764
197	0xbcde22ea	-0.027116258
198	0xbcd3f75a	-0.025874782
199	0xbaba1134	-0.0014195801
200	0xbc08db9f	-0.008353143
201	0xbb984113	-0.0046464293
202	0xbcf2b2f6	-0.02962635
203	0xb9e1c92e	-0.00043065235
204	0xbcbfb2d5	-0.023400703
205	0xbcda907c	-0.026680224
206	0xbcbabc11	-0.022794755
207	0xbc806b47	-0.015676154
208	0xbbd49c75	-0.0064883777
209	0xbcaec31f	-0.021333275
210	0xbceb1280	-0.028695345
211	0xbc63719a	-0.013882065
212	0xbd0a2c3f	-0.033733603
213	0xbcfbfd3a	-0.030760396
214	0xbc52bb08	-0.012861975
215	0xba5ebff2	-0.000849723
216	0xbcda6dcc	-0.026663683
217	0xbbd39448	-0.0064568855
218	0xbce17069	-0.027519422
219	0xbcb8ae57	-0.02254407
220	0x3abdbaf5	0.0014475273
221	0xbc366c58	-0.01113423
222	0xbcbfe77c	-0.02342581
223	0xbcc43e35	-0.023955444
224	0xbc48c40c	-0.0122537725
225	0x3b185d35	0.0023248915
226	0x3bcf9e6b	0.0063360236
227	0xbb9fe279	-0.0048792926
228	0xbbd2d2d4	-0.006433824
229	0x3c32e45c	0.010918703
230	0xbd6d0a57	-0.05787119
231	0xbd351500	-0.04420948
232	0xbd42b057	-0.047531452
233	0xbc9474fd	-0.01812219
234	0xbc85238d	-0.016252303
235	0xbd49bd19	-0.049252603
236	0xbd7c5aec	-0.061610147
237	0xbd9a37c7	-0.0753017
238	0xbd3925c5	-0.045202035
239	0xbd5bb65f	-0.05364072
240	0xbd860709	-0.065443106
241	0xbd8e9bf0	-0.069633365
242	0xbd60832b	-0.05481259
243	0xbd8e1390	-0.06937325
244	0xbd877ed2	-0.06615986
245	0xbd8ae2e5	-0.06781558
246	0xbd92920f	-0.07156765
247	0xbd93eb11	-0.0722257
248	0xbd8081d7	-0.06274765
249	0xbd72d64e	-0.059286408
250	0xbb92e3fe	-0.004482745
251	0xbcfca5f5	-0.030840853
252	0xba9304a2	-0.0011216591
253	0x388e84f5	6.795853e-05
254	0xbd08a4f4	-0.033360437
255	0xbb9bc6f8	-0.0047539435

encoder.3.bias f4 [32]
0	0xbda5d1c1	-0.08096648
1	0xbd846c55	-0.06465975
2	0xbc661173	-0.014042246
3	0xbd13b342	-0.036059625
4	0xbcf0493a	-0.029331792
5	0xbde973ac	-0.11399016
6	0xbcd5fdb5	-0.026121954
7	0x4032340f	2.7844274
8	0xbc6e7017	-0.0145530915
9	0xbcaf3ba2	-0.02139074
10	0xbc35791c	-0.011076238
11	0xbc814ad5	-0.015782753
12	0xbcd651a5	-0.026161978
13	0xbcd8d9d3	-0.026471054
14	0xbbe1d694	-0.006892035
15	0xbca5f132	-0.020256612
16	0x400c6191	2.193455
17	0xbe105ab5	-0.14097102
18	0xbc498681	-0.012300135
19	0xbbbb4171	-0.0057145883
20	0xbd78b6ac	-0.060721084
21	0xbd12929d	-0.035784353
22	0xbd1298c6	-0.035790227
23	0xbcf56aec	-0.02995821
24	0xbd4a8a8c	-0.049448535
25	0xbd7fb130	-0.06242484
26	0xbce9ac0d	-0.028524423
27	0xbba56f09	-0.005048637
28	0xbcdea8dd	-0.02718013
29	0xbca196c0	-0.019725204
30	0xbce3f0ac	-0.027824722
31	0xbdcdc8f5	-0.10048095

encoder.6.weight f4 [3, 32, 3, 3]
0	0x3d15f52b	0.036610764
1	0xbd3286c3	-0.04358555
2	0x3bca854d	0.0061804415
3	0x3be1ce89	0.006891076
4	0x3c9743c5	0.018464932
5	0x3cf7500b	0.030189535
6	0xbce71951	-0.028210314
7	0xbcf23097	-0.029564185
8	0xbcdef50e	-0.02721646
9	0x3d766594	0.060155466
10	0xbc4554c0	-0.012044132
11	0x3d130ff6	0.035903893
12	0xbcf3c3bc	-0.02975642
13	0x3cacf8ca	0.021114726
14	0xbb802d02	-0.0039116153
15	0xba8b6f31	-0.0010637996
16	0x39cbb1ae	0.0003885156
17	0x3d1d6dc8	0.038434774
18	0x3d90ab53	0.070639275
19	0x3c901628	0.01758869
20	0xbc897c46	-0.016782891
21	0x3c368f63	0.0111425845
22	0x3d619ab9	0.055079196
23	0x3d28f689	0.04125074
24	0x3d01c322	0.031680234
25	0xbcd06cf3	-0.025442576
26	0x3c2df81e	0.010618238
27	0x3caa3622	0.020777766
28	0xbc8d6735	-0.017261127
29	0xbe00a0a3	-0.12561278
30	0x3bfae560	0.007656738
31	0x3de98e4c	0.11404094
32	0x3cacd1e6	0.021096181
33	0x3ca5faea	0.020261247
34	0xbb61890f	-0.0034413969
35	0xba20186a	-0.00061071536
36	0x3c7bbeb6	0.015365293
37	0x3c048dfc	0.008090492
38	0x3d3749f0	0.044748247
39	0xbcd93cf0	-0.026518315
40	0x3b9f59a4	0.004862981
41	0xbd1784f4	-0.03699203
42	0xbd5a4c12	-0.053295203
43	0xbd80d3d7	-0.06290405
44	0x3cc22380	0.023698568
45	0x3e002931	0.12515713
46	0x3da75cf3	0.081720255
47	0x3d530154	0.05151494
48	0x3def5ef5	0.116880335
49	0x3e294df3	0.16533642
50	0x3d62064a	0.05518178
51	0x3e0a5c6d	0.1351182
52	0x3dce8f51	0.10085929
53	0x3d826ce9	0.06368429
54	0xbcaa0288	-0.02075316
55	0xbd29f1db	-0.041490417
56	0x3cf55de9	0.029952006
57	0xbc589a39	-0.013220363
58	0x3c54e0b5	0.012993027
59	0x3d64497c	0.055734143
60	0xbd7077fe	-0.058708183
61	0xbd584818	-0.05280313
62	0xb96acac6	-0.00022391518
63	0xba5137b2	-0.00079810165
64	0x3dd15d35	0.10222856
65	0xbd2254fb	-0.039631825
66	0x3c885205	0.016640672
67	0x3e6c19d9	0.23056735
68	0x3d4fefdf	0.05076587
69	0xbc7691ea	-0.015049437
70	0xbd2b7eb4	-0.04186888
71	0x3c6bc8af	0.014391108
72	0x3cb8341c	0.022485785
73	0x3c3407db	0.010988201
74	0x3d484d38	0.048901767
75	0x3ca17a54	0.01971165
76	0xbd1d2374	-0.03836389
77	0x3d0a65c0	0.033788443
78	0xbc020fa7	-0.007938302
79	0xbd687cea	-0.056759752
80	0xbd33aefa	-0.043868043
81	0xbd0ca550	-0.03433734
82	0x3ccf78e2	0.025326196
83	0xbd0fffcb	-0.035156053
84	0xbd19cc3b	-0.037548285
85	0xbd0e2624	-0.034704342
86	0x3d6c17b4	0.057639793
87	0xbd8096e3	-0.06278779
88	0xbd44cde6	-0.048047923
89	0xbbcf5d45	-0.0063282573
90	0xbbb2aa36	-0.0054524196
91	0x3d197b86	0.037471317
92	0x3c5c324a	0.013439724
93	0x3d180531	0.037114326
94	0x3c88ee99	0.016715335
95	0x3b7d79bd	0.0038677298
96	0xbb997468	-0.004683066
97	0xbc56cd99	-0.013110542
98	0xbc200f00	-0.009769201
99	0x3cc1f634	0.02367697
100	0x3d288386	0.041141056
101	0xbd489866	-0.048973463
102	0xbd520cb6	-0.051281653
103	0x3d4830f9	0.04887483
104	0xbc57533d	-0.013142404
105	0xbd211da1	-0.039334897
106	0xbd58a797	-0.0528942
107	0x3ccc7207	0.024956716
108	0xbc951391	-0.018197807
109	0x3d0acf63	0.033889186
110	0x3cc5286c	0.024067126
111	0xbc739126	-0.014866149
112	0x3d452106	0.048127197
113	0x3c91f71e	0.01781803
114	0x3c164bab	0.009173314
115	0xbd48f151	-0.049058262
116	0xb9c1a222	-0.00036932627
117	0xbd071135	-0.032975394
118	0x3c98069f	0.018557845
119	0x3d390dd6	0.04517921
120	0x3bf74265	0.0075457566
121	0xbd36663b	-0.04453109
122	0xbd181577	-0.037129845
123	0xbcbde600	-0.023180962
124	0xbca816c9	-0.020518677
125	0x3cb58be9	0.02216144
126	0x3d1e66d2	0.038672276
127	0xbcd245b1	-0.025667997
128	0xbccabefd	-0.024749273
129	0xbc3ae2fb	-0.011406655
130	0x3a96f240	0.0011516288
131	0x3d217cc7	0.039425638
132	0xbc5a63ee	-0.013329489
133	0xbd40db98	-0.04708442
134	0x3cf4f9e5	0.029904315
135	0xbc8467ff	-0.01616287
136	0x3d892d72	0.06698121
137	0xbd35e62d	-0.044408966
138	0x3c88e981	0.016712906
139	0xbc944011	-0.018096955
140	0x3d664239	0.0562155
141	0x3cd01c04	0.025403984
142	0x3d187d1a	0.03722868
143	0x3d107bff	0.035274502
144	0xbd6e92e6	-0.058245562
145	0x3d57b6f7	0.052664723
146	0x3cf4044f	0.02978721
147	0xbdaae006	-0.0834351
148	0xbcea9309	-0.028634565
149	0xbcf5dc6f	-0.030012337
150	0x3c963f26	0.018340658
151	0xbc154cb7	-0.0091125285
152	0xbbc4eb22	-0.0060094753
153	0x3d61b5ac	0.055104896
154	0x3d0ab54c	0.033864304
155	0x3db3556a	0.08756526
156	0x3dd2e85c	0.10298225
157	0x3cfd2ef4	0.030906178
158	0x3dc85145	0.09781126
159	0x3d25b2d2	0.04045374
160	0x3d9c14e0	0.07621169
161	0x3d957adf	0.072988264
162	0xbd619198	-0.05507049
163	0xbcadb12f	-0.021202652
164	0x3d4a9d09	0.049466167
165	0xbd3da0fb	-0.0462961
166	0xbd33aada	-0.04386411
167	0x3cb53e88	0.022124544
168	0xbbd62194	-0.0065347645
169	0xbd091cd1	-0.033474747
170	0x3c19ad6e	0.009379728
171	0x3c89b844	0.016811498
172	0xbd05d326	-0.03267207
173	0xbd44a9c6	-0.04801347
174	0x3d13682d	0.03598802
175	0xbd4f52eb	-0.050616186
176	0xbcbd605f	-0.023117242
177	0xbd5eee70	-0.05442661
178	0x3d0d15b3	0.034444522
179	0x3d239aef	0.039942678
180	0x3de2a047	0.11065727
181	0xbe38f6d4	-0.18062907
182	0xbe6d4c91	-0.23173739
183	0x3cf08de6	0.029364537
184	0xbd3eee37	-0.046613898
185	0xbbf7e67d	-0.007565318
186	0xbca07f95	-0.019592086
187	0x3cdb5353	0.02677313
188	0x3c798bcd	0.015231085
189	0xbaaf73f8	-0.0013386002
190	0xbd5c7de7	-0.053831007
191	0xbd79ed2b	-0.061017197
192	0x3cd7abbf	0.026327012
193	0x3d677177	0.056504693
194	0xbc84c30f	-0.016206292
195	0xbd898f13	-0.06716742
196	0xbbf48293	-0.0074618547
197	0xbc688f3c	-0.014194306
198	0x3c0b6853	0.00850876
199	0xbadeeda1	-0.0017008075
200	0x3b992b4e	0.004674352
201	0x3b63438b	0.003467771
202	0x3ccbfb49	0.024900096
203	0x3ae08c4a	0.0017131653
204	0xbd116c5c	-0.03550373
205	0xbd39f757	-0.045401897
206	0x3d5130c2	0.05107189
207	0xbce1669c	-0.027514748
208	0x3d214761	0.039374713
209	0x3d111609	0.035421405
210	0x3c0a5906	0.008444076
211	0x3ceb2139	0.028702365
212	0xbd24154e	-0.04005938
213	0x3d2cee09	0.042219196
214	0xbd5b437c	-0.053531155
215	0xbbc25445	-0.005930456
216	0x3d370dd4	0.044690922
217	0xbc7ed503	-0.015553716
218	0x3d4773b7	0.04869434
219	0x3bdd7d84	0.0067593474
220	0xbc6f0328	-0.014588155
221	0x3b7068bc	0.003668352
222	0x3bf9e92a	0.0076266723
223	0x3d665fac	0.056243584
224	0x3d06070c	0.032721564
225	0x3d482cbb	0.048870783
226	0x3dc09af3	0.09404554
227	0x3d6caa9c	0.057779893
228	0x3d2b0a9c	0.041758165
229	0x3d86233d	0.0654969
230	0x3dfa29bc	0.122149915
231	0x3da8e03a	0.08245893
232	0x3ddf44a2	0.109017625
233	0x3d428b0a	0.04749588
234	0xbcc197b1	-0.023631902
235	0xbd1f756d	-0.038930345
236	0x3d3cfca8	0.04613939
237	0x3c902cec	0.017599545
238	0xbcc53410	-0.024072677
239	0x3d88dba6	0.066825196
240	0x3cf508a4	0.029911347
241	0xbbd8272b	-0.006596466
242	0x3cb8aadf	0.022542415
243	0xbd05215f	-0.03250253
244	0xbcc2ac26	-0.023763727
245	0x3d174efa	0.036940552
246	0xbcbf24aa	-0.023332912
247	0xbae5b1f5	-0.0017524349
248	0xbc9329dd	-0.017964298
249	0x3cb8858e	0.022524621
250	0xbc0ab6d9	-0.008466446
251	0x3c65f9b9	0.014036589
252	0x3cfada90	0.030621797
253	0xbb1c766b	-0.0023874294
254	0xbcab6307	-0.020921243
255	0x3b62c6ee	0.0034603435

encoder.6.bias f4 [3]
0	0x401e620e	2.4747348
1	0x3f8aa443	1.0831379
2	0x3e90f0f5	0.28308836

decoder.0.weight f4 [3, 32, 3, 3]
0	0xbd0401d1	-0.032228295
1	0xbdc2cf89	-0.095122404
2	0xbd75a509	-0.059971843
3	0x3cca61d9	0.02470486
4	0x39bc4f39	0.0003591718
5	0xbc9ac69a	-0.018893529
6	0xbd4b5d16	-0.04964932
7	0xbd82381b	-0.063583575
8	0x3bfd28e6	0.0077258227
9	0x3c2af70c	0.010434877
10	0xbd279aad	-0.040918995
11	0xbd1f367b	-0.038870316
12	0x3c8f341a	0.017480899
13	0xbd4c9d54	-0.049954727
14	0xbd971bad	-0.073783256
15	0xbc1f8843	-0.009737077
16	0xbd5e4b50	-0.054271042
17	0xbb8207c2	-0.00396821
18	0xbf0554e4	-0.5208266
19	0xbd8f631a	-0.07001324
20	0x3e8b4388	0.2719996
21	0xbba5b7db	-0.0050573177
22	0xbd9dcc4a	-0.07704981
23	0xbcce6ea6	-0.025199246
24	0xbecbbf0a	-0.3979419
25	0xbcaa6e84	-0.020804651
26	0x3ebbf16a	0.36707622
27	0xbbe66a05	-0.0070316815
28	0xbe15bfaa	-0.14623895
29	0xbd8d12a3	-0.0688832
30	0xbd240e07	-0.04005244
31	0x3e8cd246	0.27504176
32	0xbd295877	-0.041344132
33	0xbcdb7c0b	-0.026792547
34	0xbc0b725e	-0.008511154
35	0x3c14e4f7	0.009087793
36	0xbe857ceb	-0.26071867
37	0xbde33c1d	-0.1109545
38	0xbda5c00a	-0.08093269
39	0xbc0be8a8	-0.008539356
40	0x3e9f1dc9	0.31077412
41	0xbd9d9dac	-0.07696089
42	0xbe4fdf99	-0.2030014
43	0xbe4327e8	-0.19058192
44	0xbf0070a7	-0.50171894
45	0x3d15eaf8	0.036601037
46	0xbe9c976e	-0.30584282
47	0xbe7a47a6	-0.24441394
48	0xbdce10db	-0.10061809
49	0xbf5e265c	-0.8677728
50	0xbf2ed4ea	-0.6829363
51	0x3a492bc7	0.0007674065
52	0xbf09cdaa	-0.53829443
53	0x3e192501	0.14955522
54	0xbd0cf77d	-0.03441571
55	0xbeb3553e	-0.35025972
56	0xbdb6168f	-0.088910215
57	0xbdd16806	-0.10224919
58	0x3e37baa3	0.1794229
59	0x3e4a35bf	0.19747065
60	0xbd6c574f	-0.05770045
61	0x3eef277c	0.46709812
62	0x3b424871	0.002964523
63	0xbefcf145	-0.49402824
64	0xb945ff4d	-0.00018882491
65	0x3f0daa62	0.5533811
66	0xbc22aedf	-0.009929388
67	0xbd081a85	-0.033228416
68	0xbb8ede68	-0.004360009
69	0x3e41dd72	0.18932131
70	0xbd884bf2	-0.066551104
71	0xbeef6333	-0.4675537
72	0xbf20d757	-0.6282858
73	0xbf805acc	-1.0027709
74	0xbe959f19	-0.29222944
75	0xbdad3e0e	-0.084591016
76	0xbe6e2ad3	-0.23258524
77	0xbd11b87d	-0.035576332
78	0xbf3299d2	-0.6976596
79	0xbf8a6dc2	-1.0814745
80	0xbe40c51e	-0.18825194
81	0xbfe74296	-1.8067195
82	0xbe0b70cb	-0.13617246
83	0xbef0a892	-0.4700361
84	0x3d8fb88d	0.07017622
85	0xbd1878bc	-0.037224516
86	0xbe17e6a5	-0.14834078
87	0x3ef9aa43	0.48762712
88	0x3e3e87f3	0.18606548
89	0xbeb347d2	-0.35015732
90	0xbe55730c	-0.20844668
91	0xbd350780	-0.044196606
92	0xbe71bd40	-0.2360735
93	0xbf18a5ad	-0.596278
94	0xbc8de5d4	-0.017321505
95	0xbf1b09ef	-0.6056203
96	0xbe28dfc1	-0.16491605
97	0xbd4bd0d0	-0.049759686
98	0x3e9257eb	0.285827
99	0xbd900fc3	-0.07034256
100	0xbb26e654	-0.0025466876
101	0x3bd9921b	0.0066397316
102	0xbda208e2	-0.079118505
103	0x3c3ea4f8	0.011636011
104	0xbd0fab92	-0.03507573
105	0xbd67fc1d	-0.05663692
106	0xbc594dd2	-0.013263183
107	0xbac4a262	-0.0015002007
108	0xbd3f0047	-0.046631124
109	0x3c8eb3ce	0.017419722
110	0x3e790e87	0.24321948
111	0xbe969561	-0.29410842
112	0xbd14861e	-0.036260717
113	0xbf02bb98	-0.51067495
114	0xbd3847b9	-0.044990275
115	0xbd6add08	-0.057339698
116	0x3dd6101e	0.10452293
117	0x3d90c3c8	0.07068592
118	0xbd272a73	-0.040811967
119	0xbd488266	-0.048952483
120	0xbf103c87	-0.5634236
121	0x3caf1d68	0.021376327
122	0x3d1a9ce9	0.037747297
123	0x3da89c88	0.08232981
124	0xbc9b1ace	-0.01893368
125	0xbca95cd8	-0.020674154
126	0xbe087a3c	-0.13327879
127	0xbd4ecb5f	-0.05048692
128	0xbdd93dbb	-0.10607477
129	0x3f435da4	0.7631476
130	0xbbc52ce4	-0.0060173143
131	0xbf5244bf	-0.8213615
132	0xbf312f17	-0.6921248
133	0xbd8b2215	-0.0679361
134	0x3e945a63	0.2897521
135	0xbd9a39f7	-0.07530587
136	0x3d1fe8ca	0.039040364
137	0xbda62de6	-0.08114223
138	0xbd602cf7	-0.05473038
139	0x3e102196	0.14075312
140	0x3e8e9dce	0.2785477
141	0xbc4361d5	-0.01192518
142	0x3d81feed	0.06347451
143	0xbd72f2bb	-0.059313517
144	0xbea37d62	-0.31931597
145	0xbdb0a00e	-0.08624278
146	0xbdb70136	-0.08935778
147	0x3e2b8fe3	0.16754107
148	0xbd241a0e	-0.04006391
149	0xbe400fd0	-0.18756032
150	0xbeeca23b	-0.46217522
151	0x3b5f988f	0.0034118032
152	0xbe397035	-0.1810921
153	0x3d80c18d	0.06286917
154	0xbe5d6685	-0.2162114
155	0xbd830d84	-0.06399062
156	0xbd78f83e	-0.060783617
157	0xbcb4a98b	-0.0220535
158	0xbd9dbda1	-0.077021845
159	0x3cf940f3	0.030426478
160	0xbe8d151c	-0.27555168
161	0xbd557a98	-0.052118868
162	0x3e82e475	0.25564924
163	0xbecfe72a	-0.40606052
164	0x3ebbbba9	0.3666661
165	0x3e159061	0.14605857
166	0x3b616b49	0.0034396222
167	0x3e5aa513	0.21352033
168	0xbd9c3cf0	-0.076288104
169	0xbedde035	-0.4333512
170	0xbeb6bc99	-0.35690764
171	0xbdf74487	-0.120736174
172	0x3d1bc629	0.038030777
173	0xbfa80d82	-1.3129122
174	0xc0a3ec75	-5.1226144
175	0xc0abe185	-5.3712792
176	0xbe6e50e0	-0.23273039
177	0xbe1a7d39	-0.15086831
178	0xbe9a2143	-0.30103502
179	0xbfc90714	-1.5705285
180	0xbcc5ce29	-0.024146156
181	0xbcc08892	-0.023502622
182	0x3cbd8b8c	0.02313783
183	0xbdd0b8e8	-0.10191518
184	0xbee8c6e8	-0.45464253
185	0xbf08aa01	-0.53384405
186	0xbc9654b3	-0.018350935
187	0xbe1f3bfa	-0.15550223
188	0x3ceac6a2	0.028659169
189	0xbdbf00eb	-0.09326347
190	0xbe4d4195	-0.20044549
191	0x3e3b2764	0.18276745
192	0xbeb2df2f	-0.349359
193	0x3dadbaa4	0.084828645
194	0x3e9ccd98	0.30625606
195	0xbdccfe08	-0.1000939
196	0x3e63231e	0.22181365
197	0x3dba4e03	0.09096911
198	0xbe36e9a0	-0.17862558
199	0xbe3ce78b	-0.18447702
200	0xbf2f6609	-0.6851507
201	0xbd1e9582	-0.0387168
202	0xbf81077e	-1.0080411
203	0xbe2fd001	-0.17169191
204	0xbd970205	-0.07373432
205	0xbe67d766	-0.22640762
206	0xbed328ec	-0.41242158
207	0xbd283116	-0.041062437
208	0xbe2658ea	-0.16244856
209	0x3e947eff	0.2900314
210	0xbd95ab49	-0.07308061
211	0xbf36bdb8	-0.7138324
212	0xbe9aaf7d	-0.30212012
213	0xbcc2da77	-0.023785813
214	0xbe30d874	-0.1727007
215	0xbe6fce8a	-0.23418632
216	0x39815296	0.0002466633
217	0x3d096489	0.033543143
218	0xbbc69fba	-0.0060615214
219	0xbe2009e8	-0.15628779
220	0xbd8c6be3	-0.06856515
221	0xbe4105f7	-0.18849932
222	0xbdbd9495	-0.092568554
223	0xbd5ba706	-0.053626083
224	0xbcaf0186	-0.021363031
225	0xbedfea86	-0.43733615
226	0xbc361f5f	-0.011115878
227	0xbf301753	-0.6878559
228	0xbd03cb8c	-0.03217654
229	0x3c72c28d	0.014816892
230	0xbe7a9b75	-0.24473365
231	0xbdd87349	-0.10568864
232	0xbce3b911	-0.027798207
233	0x3e1e82ce	0.15479586
234	0xbf05fa11	-0.52334696
235	0x3e564c23	0.20927481
236	0xbf0c59b4	-0.54824376
237	0xbc12b821	-0.008955033
238	0x3e588523	0.21144538
239	0x3ebb8778	0.36626792
240	0xbd533d99	-0.051572416
241	0xbe6e21fb	-0.2325515
242	0x3e8fb1e5	0.2806541
243	0x3d436011	0.047699038
244	0xbf042b40	-0.51628494
245	0xbe3dba51	-0.18528105
246	0xbed1e241	-0.4099293
247	0xbdaa7af1	-0.083242305
248	0xbf7440a8	-0.9541116
249	0xbe692c8c	-0.227709
250	0xbf2af343	-0.6677744
251	0xbe37a255	-0.17933019
252	0xbd81d80a	-0.06340034
253	0xbd969683	-0.073529266
254	0xbcae20ed	-0.021255935
255	0x3cba0145	0.022705683

decoder.0.bias f4 [32]
0	0xbe14aaaf	-0.14518236
1	0xbcb45b1b	-0.022016099
2	0xbee92728	-0.45537686
3	0xbfeccd4c	-1.8500152
4	0xbe9a9f9b	-0.30199894
5	0x3e55805f	0.20849751
6	0xbfafb0b6	-1.3725803
7	0xbf347adc	-0.7049997
8	0x3f3bfcb1	0.7343245
9	0x3f6d6be7	0.9274277
10	0xbfcaf501	-1.5856019
11	0xbe1cf7a6	-0.15328845
12	0xbfff3ec5	-1.9941031
13	0xbfc9daa4	-1.5769849
14	0xbf39c554	-0.72566724
15	0xbef76e0f	-0.48326156
16	0xbe80b58b	-0.25138506
17	0xbf852ef6	-1.0404956
18	0x3e51062e	0.20412514
19	0x3fa696a7	1.3014725
20	0x3d1745b2	0.0369317
21	0xbe4f7294	-0.20258552
22	0x3ecdce0c	0.40196264
23	0xbdad513b	-0.08462759
24	0xbe28169e	-0.16414878
25	0xbf88077b	-1.0627283
26	0xbf06b469	-0.52619034
27	0x3fb00fa7	1.3754777
28	0xbb562bf0	-0.0032679997
29	0xbf355fac	-0.7084911
30	0xbe848c81	-0.25888446
31	0x3fa6c55d	1.302898

decoder.2.weight f4 [32, 128, 5, 5]
0	0x3f2a5bfb	0.665466
1	0xbbe69c7d	-0.007037698
2	0x3e8a1d2b	0.26975378
3	0xbccfca89	-0.025365131
4	0x3ee63b68	0.44967198
5	0xbf020fec	-0.50805545
6	0x3e8574b7	0.2606561
7	0x3ccf329e	0.02529269
8	0x3f1c8ff4	0.61157155
9	0xbf3347c9	-0.7003141
10	0xbf2cf2fb	-0.6755826
11	0xbccc39d9	-0.024929928
12	0xbf941ab4	-1.1570649
13	0xbc2003ae	-0.009766502
14	0xbef26a75	-0.47346845
15	0xc003f2c7	-2.061693
16	0xbed14009	-0.40869167
17	0xc020c6df	-2.5121381
18	0xc031df4d	-2.7792542
19	0x3edd6d79	0.43247584
20	0xbea23aeb	-0.31685576
21	0xbd01d669	-0.031698618
22	0xbf55a0b3	-0.8344833
23	0xbc30a2f0	-0.010781035
24	0x3eab8715	0.33501497
25	0xbf706d6e	-0.93916976
26	0xc03ba819	-2.9321349
27	0x3f811e2f	1.0087336
28	0xbf99572b	-1.1979727
29	0x3f9aff7d	1.2109219
30	0xbe030208	-0.12793744
31	0xbeee7bfb	-0.46578965
32	0xc0815398	-4.0414543
33	0xbe76eb94	-0.24113303
34	0x403cd9b5	2.9507878
35	0x3f6ea2a0	0.93216896
36	0x3fbee554	1.4913735
37	0x3f06e351	0.5269061
38	0x4008e7f0	2.1391563
39	0xbf9b5171	-1.2134229
40	0xbed53da5	-0.41648594
41	0x3f9c9c62	1.2235224
42	0xc07b21a9	-3.9239295
43	0x3ec065d5	0.37577692
44	0xc0843995	-4.132029
45	0x3df367a4	0.11885002
46	0x3fa399be	1.2781293
47	0xbe09027c	-0.13379854
48	0x3fbacacb	1.4593138
49	0xc0793b3c	-3.8942404
50	0xbbf73b18	-0.0075448863
51	0xbeb1f058	-0.3475368
52	0xbcbb9688	-0.022898927
53	0xbf1f9450	-0.6233568
54	0xba709e10	-0.00091788266
55	0xbbfa17b2	-0.007632219
56	0x3d3c0757	0.045905437
57	0xbc2d4570	-0.010575637
58	0xbc371062	-0.01117334
59	0xbc5e5efa	-0.013572449
60	0xbc912eb7	-0.01772247
61	0xbecfc177	-0.4057729
62	0xbcace8e9	-0.021107154
63	0xbe836271	-0.25661042
64	0xbbdc97ec	-0.0067319777
65	0xbbc396c9	-0.0059689027
66	0xbc3168b5	-0.010828187
67	0xbc34976e	-0.011022432
68	0x3beff178	0.0073224865
69	0xbc52aabf	-0.012858092
70	0xbd10adec	-0.035322115
71	0x3f1f6093	0.62256736
72	0xbcb56c24	-0.022146292
73	0xbf67c315	-0.90532047
74	0xbca53bd0	-0.020170122
75	0x3f0f26df	0.5591869
76	0xbc9cb873	-0.019130921
77	0xc03079c8	-2.757433
78	0xbb25154c	-0.0025189696
79	0x3e4be3ed	0.19911166
80	0x400cf2bd	2.2023156
81	0xbcc46f69	-0.023978906
82	0x3f639cb3	0.8891098
83	0xbc69b601	-0.0142645845
84	0xbe89199a	-0.26777345
85	0x3ee3f77b	0.4452475
86	0x3c893821	0.016750397
87	0x3fe5a3c0	1.7940598
88	0xbcdc8741	-0.026919963
89	0x3e08b6fb	0.13351052
90	0xbed34bf2	-0.4126888
91	0xbb9577fd	-0.004561423
92	0xbf0998f4	-0.5374901
93	0xbb2475e2	-0.0025094678
94	0x3f1043db	0.5635354
95	0x3f57e5b0	0.8433485
96	0xbcf428e4	-0.029804654
97	0x3ffcd07c	1.9751124
98	0xbbe94e6c	-0.0071199443
99	0xbfa39e09	-1.2782604
100	0xbf8bb9fe	-1.0916135
101	0xbc38368e	-0.011243476
102	0xbd273ce6	-0.04082956
103	0xbdaab1d9	-0.08334703
104	0x3f54d6e8	0.8314042
105	0xbded50c1	-0.11587668
106	0xbe2d9f2f	-0.16955255
107	0x3ea1289d	0.31476298
108	0x3e2d2ec3	0.1691237
109	0x3ed9bdb3	0.42527542
110	0xbee9585d	-0.45575228
111	0x3ea9ab64	0.33138573
112	0xbed95b03	-0.4245225
113	0xbecf8460	-0.40530682
114	0x3dab43be	0.0836253
115	0x3d252cf2	0.040326066
116	0xbf95e928	-1.1711779
117	0xbe92ed4a	-0.28696662
118	0xbea1ee64	-0.3162719
119	0x3f19383b	0.59851426
120	0x3f4ea2a0	0.80716896
121	0xbe6f0136	-0.23340306
122	0x3e52054a	0.2050983
123	0xbe537c75	-0.20652945
124	0x3f4e10d2	0.80494416
125	0xbd094e9a	-0.033522226
126	0xbf33b1d2	-0.7019321
127	0xbc2c75ec	-0.010526162
128	0xbee2967a	-0.4425543
129	0xbc7b434a	-0.015335867
130	0x3f19d75c	0.6009424
131	0xc0010d16	-2.0164237
132	0xbf88f235	-1.0698916
133	0xbdbc30c2	-0.09188987
134	0x3e94df7d	0.29076758
135	0xbb3ca7c9	-0.0028786531
136	0xbd2ddda5	-0.042447705
137	0xbbc686e7	-0.006058562
138	0xbfaf1389	-1.3677837
139	0xbcbcb3d7	-0.023034973
140	0x3f017207	0.50564617
141	0x3f8d7b1e	1.1053197
142	0x3fb8780e	1.4411638
143	0x3f12e625	0.5738242
144	0xbf01e8cd	-0.5074585
145	0xbcd9553f	-0.026529906
146	0xbe7be74b	-0.2459995
147	0xbc9a4f8d	-0.01883676
148	0x3fd146d4	1.634974
149	0xbbd70d94	-0.006562898
150	0xbf159729	-0.5843378
151	0x3c068983	0.008211496
152	0x3f3df9d7	0.7420935
153	0x3ba7ff11	0.005126842
154	0x3f37934b	0.71709126
155	0x3bb17eee	0.0054167425
156	0xbc432f75	-0.01191317
157	0xbc47326c	-0.012158018
158	0x3c5a90f2	0.013340222
159	0xbc197398	-0.009365939
160	0xbf096a8a	-0.5367819
161	0xbc5beb43	-0.01342279
162	0xbdf62112	-0.120180264
163	0xbb96b4ca	-0.0045991885
164	0x3f024581	0.50887305
165	0xbb94c2e6	-0.0045398353
166	0x3b9165ae	0.00443717
167	0x3c87122b	0.016488155
168	0xbade993e	-0.0016982926
169	0xbc37f750	-0.0112283975
170	0xbf5a6be0	-0.85320854
171	0x3c2d8cf2	0.010592686
172	0x3d786152	0.060639687
173	0xbc06a13e	-0.008217154
174	0x3ffc7941	1.9724504
175	0x3fc06c35	1.5033022
176	0xc0092ba7	-2.1432893
177	0x3feb38d0	1.8376713
178	0xbfff5e89	-1.9950725
179	0x3fa177a4	1.2614636
180	0xbf0569e6	-0.52114713
181	0x3f2a6597	0.66561264
182	0x3fdd3af1	1.7283612
183	0x3e5f814e	0.2182667
184	0xbf3e0192	-0.74221146
185	0xc0161fb1	-2.3456843
186	0x3f44ae2d	0.7682827
187	0xbf31dab2	-0.6947433
188	0xc0466e82	-3.1004949
189	0x3f723eb5	0.94626933
190	0x3d1d0e2f	0.038343605
191	0xbe6b5522	-0.22981694
192	0x3f0ee106	0.5581211
193	0xbfd5d97d	-1.6706997
194	0xbebd6214	-0.3698889
195	0x3f387c33	0.7206451
196	0x3f51d30a	0.81962645
197	0x3daa4eab	0.08315786
198	0xbf67d220	-0.90555
199	0xc01b5e56	-2.4276328
200	0xbca61eda	-0.020278383
201	0xbb110b5e	-0.002213202
202	0xbbc3af69	-0.0059718383
203	0x3b6ae635	0.003584278
204	0xbcafaed7	-0.021445675
205	0xbc32d59a	-0.010915184
206	0xbba91e32	-0.0051610703
207	0xbbe16bce	-0.0068793064
208	0xbc85164f	-0.01624599
209	0xbce71572	-0.028208468
210	0xbb380804	-0.002808095
211	0xbca2e918	-0.019886538
212	0xbcbf72af	-0.023370115
213	0xbcc31698	-0.023814484
214	0xbc384df3	-0.011249053
215	0xbca69b60	-0.02033776
216	0xbc90064a	-0.017581124
217	0x3b8965bf	0.0041930373
218	0xbc881ba0	-0.016614735
219	0xbb8581d3	-0.004074314
220	0xbcf4a484	-0.029863603
221	0xbb205651	-0.002446551
222	0xbc92103d	-0.017830009
223	0xba636f50	-0.00086759496
224	0xbc47f34b	-0.012204002
225	0xbb9a640a	-0.0047116326
226	0xba07888e	-0.00051701895
227	0xbc3745e1	-0.011186094
228	0xbbaa5a1c	-0.00519873
229	0xbcbbe9b7	-0.022938592
230	0xbc2ba0a1	-0.010475309
231	0xbcf337e1	-0.029689731
232	0xbc58b56d	-0.013226849
233	0x3c952e87	0.018210663
234	0xbc1351e6	-0.008991694
235	0xbc0e3a93	-0.008680957
236	0xbba4b599	-0.005026531
237	0x3c505c4b	0.012717317
238	0xbce1df22	-0.027572218
239	0x3c84091f	0.01611763
240	0xbcfa4c19	-0.030553864
241	0xbd280a4d	-0.04102545
242	0xbc6b112a	-0.014347354
243	0x3c2bcc33	0.010485697
244	0xbca3d7bc	-0.020000331
245	0x3a167d1f	0.00057406904
246	0xbce49d67	-0.027907087
247	0xbb95b42c	-0.0045685973
248	0x3b8dade6	0.004323709
249	0xbb9e0b9e	-0.004823162
250	0xbcd56277	-0.026047928
251	0x3b5dc3a0	0.0033838525
252	0x3a5b6308	0.0008368944
253	0xbb34d581	-0.0027593079
254	0x3a065d92	0.00051256374
255	0x3e34e8ab	0.17666881

decoder.2.bias f4 [128]
0	0xbf484cf6	-0.78242433
1	0xc022c7ad	-2.5434372
2	0xbf9a97ae	-1.2077539
3	0xc05f2b2f	-3.4870107
4	0xbe449333	-0.19196777
5	0xbf87be0a	-1.060487
6	0xbf94d840	-1.1628494
7	0xc030869a	-2.7582154
8	0xbcdb4c25	-0.026769707
9	0xbda28cb3	-0.079369925
10	0xbfac24fa	-1.3448784
11	0xbe9b9427	-0.3038647
12	0xbda8eeb0	-0.08248651
13	0xbecd44de	-0.40091604
14	0xbf48e8cc	-0.7848022
15	0xc0134b35	-2.3014653
16	0xbf62008c	-0.88282084
17	0xbda93298	-0.08261603
18	0xbfda1f40	-1.7040787
19	0xbff576de	-1.91769
20	0xbdd177f2	-0.10227956
21	0xbf8b4f8c	-1.0883651
22	0xc042d5b2	-3.044293
23	0xbdb09476	-0.08622067
24	0xbf54e93a	-0.83168375
25	0xbe7b5764	-0.24545056
26	0xc014e43c	-2.3264303
27	0xbfb0b74d	-1.3805939
28	0xbfd3a840	-1.6535721
29	0xbdcb87bc	-0.09937999
30	0xc08a6eaf	-4.326011
31	0xbe5504f7	-0.20802675
32	0xbfe9a5e3	-1.825375
33	0xbfacfc25	-1.3514448
34	0xbf6ee7e5	-0.9332259
35	0xbfe94f55	-1.8227335
36	0xbc969bd6	-0.018384855
37	0xbf990ab0	-1.1956387
38	0xbfcb671a	-1.5890839
39	0xc0304b36	-2.7545905
40	0xbfc6ae83	-1.5522007
41	0xbf99e312	-1.2022421
42	0xbf535449	-0.82550484
43	0xbd2aba77	-0.041681733
44	0xbe084789	-0.13308538
45	0xc082e4fc	-4.090452
46	0xbeb9b894	-0.36273634
47	0xbe961f4c	-0.29320753
48	0xbfe3299c	-1.7747073
49	0xc03ffe64	-2.9999018
50	0xbd8d4056	-0.06897037
51	0xc00bb1b4	-2.1827211
52	0xbfc0f043	-1.5073322
53	0xbf4622e3	-0.7739698
54	0xbdd95e00	-0.10613632
55	0xbf3e745b	-0.74396294
56	0xbdc9b5e9	-0.0984915
57	0xbf572044	-0.8403361
58	0xbfc7acce	-1.5599611
59	0xbe1871e0	-0.1488719
60	0xbffecd6e	-1.9906442
61	0xc016aa18	-2.3541317
62	0xbfc9b907	-1.5759591
63	0xbd96bb79	-0.07359976
64	0xc01639bf	-2.3472745
65	0xbdfb2f72	-0.12264909
66	0xc01d79c8	-2.460558
67	0xbf882deb	-1.0639013
68	0xbf25c657	-0.6475577
69	0xbf90c7c4	-1.1310964
70	0xbfe4cb49	-1.7874538
71	0x3d369342	0.04457403
72	0x3c8cda5e	0.01719397
73	0xbf612795	-0.8795102
74	0xbdb2a01e	-0.08721946
75	0xbf990f5e	-1.1957815
76	0xbf9f6cba	-1.2455056
77	0xbffd8528	-1.9806261
78	0x3d956d79	0.07296271
79	0xc0083383	-2.128144
80	0xbfc10691	-1.5080129
81	0xc0130759	-2.2973235
82	0xbf4b2886	-0.7935871
83	0xbfd4b9a2	-1.6619151
84	0xbf94863b	-1.1603464
85	0xbe4ca95a	-0.19986477
86	0xbdec6ada	-0.11543818
87	0xbff6e051	-1.9287206
88	0xbe328e85	-0.1743718
89	0xbf0b54af	-0.5442609
90	0xbf6dde6a	-0.929175
91	0xbf3f4249	-0.7471052
92	0xc00c11f1	-2.188595
93	0xbfa28df0	-1.2699566
94	0xbfcec26d	-1.6153084
95	0xbf956bbc	-1.1673503
96	0xbdc2f7cf	-0.09519922
97	0x3edfb359	0.4369152
98	0xc032e6a6	-2.7953277
99	0xbf809d2e	-1.0047967
100	0xbf85b784	-1.044663
101	0xbff8d729	-1.9440662
102	0xc014e9ac	-2.3267622
103	0xbe927fea	-0.28613216
104	0xbec9fb50	-0.3944955
105	0xbf7e0ed8	-0.992414
106	0xc023c4ac	-2.558879
107	0xbe87d411	-0.2652898
108	0xbf951dca	-1.1649716
109	0xbdb17f8b	-0.08666905
110	0xbe9039ba	-0.28169042
111	0xc01ef35e	-2.483604
112	0xc04d8c37	-3.211683
113	0xbd6912a1	-0.05690253
114	0xbfb4f5a0	-1.4137459
115	0xbc79135e	-0.015202371
116	0xc03329f4	-2.7994356
117	0xbea0a209	-0.31373623
118	0xc04e0e9b	-3.2196414
119	0xbd78143e	-0.06056618
120	0xbda46a1d	-0.08028052
121	0xbf7f86b5	-0.9981492
122	0xc003b0c5	-2.0576642
123	0xc0027b0c	-2.0387602
124	0xc02b439b	-2.6760013
125	0xbff4ea9c	-1.9134097
126	0x3e6ccac5	0.23124225
127	0xbfae1569	-1.3600284

decoder.4.weight f4 [128, 3, 7, 7]
0	0xbc3c4348	-0.0114906505
1	0xbc6a9f42	-0.014320197
2	0xbcb3e437	-0.021959407
3	0xbceb9e4c	-0.028762005
4	0xbc5ff77b	-0.013669844
5	0xbc81a3cf	-0.01582518
6	0xbc865b93	-0.016401088
7	0xbc7d064f	-0.015443399
8	0xbc8377e6	-0.016048383
9	0xbcbe76d4	-0.023250021
10	0xbcb39fa6	-0.021926712
11	0xbbc6aa6f	-0.0060627977
12	0xbb13a5a2	-0.0022529145
13	0x3b8ec02f	0.004356406
14	0x3c637eb0	0.013885185
15	0x3ceed8c2	0.029156093
16	0x3cf396b6	0.02973495
17	0x3d3d7271	0.046251718
18	0x3d713bfa	0.05889509
19	0x3d694e11	0.056959216
20	0x3d48b1c2	0.048997648
21	0x3d612ea0	0.054976106
22	0x3da892d1	0.08231128
23	0x3db7fc05	0.08983616
24	0x3de4c2f9	0.111700006
25	0x3ddfe3de	0.10932134
26	0x3db0b506	0.086282775
27	0x3d80d924	0.06291416
28	0x3d662af7	0.05619332
29	0x3da496fc	0.080366105
30	0x3dacdddd	0.084407546
31	0x3dcb6869	0.09932024
32	0x3dd18b1c	0.10231611
33	0x3da60eac	0.08108267
34	0x3d44df1a	0.04806433
35	0x3d325ecb	0.043547433
36	0x3d664a14	0.05622299
37	0x3d557978	0.052117795
38	0x3d750227	0.059816506
39	0x3d882185	0.06647018
40	0x3d606b2f	0.05478972
41	0x3d0acf2e	0.03388899
42	0x3ca290fb	0.019844523
43	0x3cd15cdc	0.025556974
44	0x3cd5bd01	0.0260911
45	0x3d095fe5	0.033538718
46	0x3d0d8533	0.034550857
47	0x3cbb1fee	0.022842374
48	0x3c0b81cc	0.008514833
49	0xbc12bed5	-0.008956631
50	0xbc3462d6	-0.011009892
51	0xbc9b1958	-0.018932983
52	0xbcb8ea0f	-0.022572545
53	0xbbcf913b	-0.0063344515
54	0xbbcff0ad	-0.0063458295
55	0xbc193d80	-0.009353042
56	0xbc541888	-0.012945302
57	0xbc32fcf4	-0.010924567
58	0xbc9ef951	-0.019405993
59	0xbc56d5af	-0.01311247
60	0x3b954a38	0.0045559667
61	0x3c386d8f	0.01125659
62	0x3c823610	0.01589492
63	0x3c35077e	0.01104915
64	0x3cfea3c6	0.031083953
65	0x3d1560dd	0.03646933
66	0x3d57fa74	0.052729085
67	0x3d862d2e	0.06551586
68	0x3d83d030	0.06436193
69	0x3d65d882	0.05611468
70	0x3d51823e	0.0511496
71	0x3da86f73	0.08224382
72	0x3dc5ade7	0.0965231
73	0x3df299a7	0.11845713
74	0x3de76c9c	0.113000125
75	0x3dbf6879	0.093460985
76	0x3d90bf1a	0.070677
77	0x3d43e403	0.04782487
78	0x3d95b75b	0.07310363
79	0x3db32a25	0.08748273
80	0x3dd505fc	0.10401532
81	0x3dd43e1a	0.103634074
82	0x3dab248c	0.0835658
83	0x3d551779	0.05202434
84	0x3cf6e0c9	0.030136483
85	0x3d3a815f	0.045533534
86	0x3d4cc77b	0.049994927
87	0x3d7ad1bc	0.061235175
88	0x3d85e2bb	0.06537386
89	0x3d5b6828	0.053566128
90	0x3d137e7c	0.036009297
91	0x3c301f51	0.010749654
92	0x3ca34b4b	0.019933363
93	0x3cd700bd	0.02624547
94	0x3d036e15	0.032087404
95	0x3d13db5b	0.036097866
96	0x3cc538b4	0.02407489
97	0x3c24d268	0.01005993
98	0xbc03f0d6	-0.008053025
99	0xbc25a840	-0.010110915
100	0xbc863980	-0.01638484
101	0xbcacd5e5	-0.021098087
102	0xbba25f50	-0.00495521
103	0xbb17d6ae	-0.002316873
104	0xbc0a9a53	-0.008459645
105	0xbc6c4ba6	-0.014422333
106	0xbc2b96c2	-0.010472955
107	0xbc87616f	-0.016525952
108	0xbc2b096c	-0.010439258
109	0x3bf8f3b2	0.00759741
110	0x3ca4368f	0.020045547
111	0x3c88a8ef	0.016682116
112	0x3c3d2756	0.011545023
113	0x3cfd0409	0.030885713
114	0x3d182660	0.037145972
115	0x3d588460	0.052860618
116	0x3d8757ac	0.06608519
117	0x3d8f6803	0.070022605
118	0x3d65b43f	0.0560801
119	0x3d4dfa53	0.050287556
120	0x3da7b278	0.08188337
121	0x3dc3441b	0.095344745
122	0x3df13fc9	0.11779744
123	0x3de4457b	0.11146065
124	0x3dc49648	0.095989764
125	0x3d8f94d7	0.07010811
126	0x3d2cdba5	0.042201657
127	0x3d8c9527	0.06864386
128	0x3da7bc2e	0.08190189
129	0x3dce26db	0.10066005
130	0x3dcd4170	0.10022247
131	0x3dad7347	0.08469253
132	0x3d47ce64	0.048780814
133	0x3cdb6ee9	0.026786285
134	0x3d335046	0.043777727
135	0x3d42716f	0.04747146
136	0x3d74d650	0.059774697
137	0x3d816541	0.06318141
138	0x3d64beb2	0.055845924
139	0x3d069e94	0.032866076
140	0x3bff8e94	0.007798979
141	0x3c98fe96	0.018676084
142	0x3cc7d87e	0.024395224
143	0x3cf46c2a	0.029836733
144	0x3d08c5ad	0.033391643
145	0x3cc0e269	0.02354546
146	0x3c16a1e0	0.009193867
147	0xbdaceb07	-0.084432654
148	0xbe07d39b	-0.13264315
149	0xbdbfc4ad	-0.09363685
150	0xbd001def	-0.031278547
151	0x3c4bfd5a	0.01245054
152	0x3c93faa9	0.01806386
153	0xbc946927	-0.018116547
154	0xbdb8e005	-0.09027103
155	0xbde79a2d	-0.113087036
156	0xbd414194	-0.04718168
157	0x3d7728ce	0.06034165
158	0x3dd8a1fd	0.10577772
159	0x3dcd9113	0.10037436
160	0x3d3197a1	0.043357495
161	0xbd69f366	-0.05711689
162	0xbd02e7a0	-0.031959176
163	0x3da2a8ed	0.07942376
164	0x3e5e419d	0.21704717
165	0x3e68a0db	0.22717611
166	0x3e39c591	0.18141772
167	0x3dbc1d5f	0.091852896
168	0xbaf76800	-0.0018875599
169	0x3d64a964	0.055825606
170	0x3e355f19	0.17712058
171	0x3e8fd963	0.2809554
172	0x3e826d3f	0.25473973
173	0x3e2096a0	0.15682459
174	0x3d86ac8d	0.0657588
175	0x3cbaea3e	0.022816774
176	0x3d77d58c	0.06050639
177	0x3de5d51a	0.112222865
178	0x3e1cde33	0.15319137
179	0x3dc91c5d	0.09819863
180	0x3c1d8710	0.009614721
181	0xbd0ce674	-0.034399465
182	0x3b4cb6fc	0.0031236997
183	0xbbed12a4	-0.007234888
184	0x3b6fb8f0	0.0036578737
185	0xbce1756d	-0.027521813
186	0xbdc2493f	-0.09486627
187	0xbe0fbd1b	-0.14036982
188	0xbe00f6b0	-0.12594104
189	0xbbca5bda	-0.0061755003
190	0xbd1b6489	-0.037937675
191	0xbd63a30d	-0.05557542
192	0xbdadbb5e	-0.08483003
193	0xbdf499b9	-0.11943383
194	0xbe10cf54	-0.1414159
195	0xbdfe4fa9	-0.12417538
196	0xbda635f4	-0.081157595
197	0xbe0640d4	-0.13110667
198	0xbdc28f9e	-0.09500049
199	0xbd09b619	-0.033620927
200	0x3c0809ba	0.0083031
201	0x3c9a60ed	0.018845046
202	0xbc9c72c2	-0.01909769
203	0xbda553e3	-0.08072641
204	0xbdd90497	-0.105965786
205	0xbd3435ef	-0.043996748
206	0x3d76a684	0.060217395
207	0x3ddcccbd	0.10781238
208	0x3dcfe37e	0.101508126
209	0x3d204dd8	0.039136738
210	0xbd512570	-0.051061094
211	0xbcd673c1	-0.026178243
212	0x3da18482	0.07886602
213	0x3e5bcb9b	0.21464388
214	0x3e68fdb8	0.22753036
215	0x3e334207	0.17505656
216	0x3da32250	0.07965529
217	0x3b1c21ee	0.0023823935
218	0x3d6a81a5	0.057252545
219	0x3e34d3e2	0.17658952
220	0x3e8f3033	0.2796646
221	0x3e80c29e	0.2514848
222	0x3e17e798	0.1483444
223	0x3d60324f	0.054735478
224	0x3cccd2a3	0.025002783
225	0x3d82e711	0.06391729
226	0x3deb8bb4	0.11501256
227	0x3e20f487	0.1571828
228	0x3dbe578b	0.09294041
229	0x3897a400	7.2307885e-05
230	0xbd3edc33	-0.046596717
231	0x3b60cbf6	0.0034301258
232	0xbaa4dd1d	-0.0012578104
233	0x3c234737	0.009965709
234	0xbcb7ef3a	-0.02245294
235	0xbdc6a87f	-0.09700107
236	0xbe1d7012	-0.15374783
237	0xbe1335b3	-0.14375953
238	0xbbe48247	-0.006973538
239	0xbcfff369	-0.031243997
240	0xbd496aaa	-0.04917399
241	0xbd96544d	-0.07340298
242	0xbdec795d	-0.11546586
243	0xbe16e292	-0.14734867
244	0xbe0d9d43	-0.13829522
245	0xbdbd84f2	-0.09253873
246	0xbe0eafe1	-0.1393428
247	0xbdd77c7f	-0.105217926
248	0xbd3d9d49	-0.046292577
249	0xbbb6a1f3	-0.005573505
250	0x3c160c86	0.009158259
251	0xbcddb9dd	-0.027066166
252	0xbdaf646d	-0.085640766
253	0xbde06918	-0.10957545
254	0xbd4f3a80	-0.0505929
255	0x3d5a486b	0.05329172

decoder.4.bias f4 [3]
0	0xbe418449	-0.18898119
1	0xbe729655	-0.2369016
2	0xbe9bd04d	-0.30432358
